chaye_resnet.pkl (torch, 819343 bytes, 77 tensors)

conv.weight f4 [16, 3, 3, 3]
00000000: 93c9 65bd 71e5 e9bc 28a1 103e b9ab 40bd
00000010: 02a2 4d3e 601c 043d 1948 4a3e f49d 2c3d
00000020: 0c00 2e3e a96f 08be 2492 fabd fbfe dc3d
00000030: 96a4 ebbd 0b86 3c3e 8389 da3a e7c6 793d
00000040: a796 14bd 0a3c 93bc d6c8 d83d eebc 33be
00000050: 4f96 253c eba7 0b3e df87 c3bd f8d4 08be
00000060: 7a5c 7a3d 2023 683c b9a1 1a3e 0726 223e
00000070: c1ff 3c3e ae6e 55bc 5b43 ea3d 888a 24be
00000080: b1da 1bbe b18a c0bc 7e7c 17be 82f2 483e
00000090: 0110 163e fd8e 21be 6581 06be cf37 113e
000000a0: 42db 2c3e 4e26 2c3c c9ec 05be 6208 be3d
000000b0: ce55 12be 0789 0fbe dfe3 553d f43f ba3d
000000c0: 6346 403c a848 153e c432 9ebd 6311 bf3b
000000d0: ee80 353e 7e2f aa3d 887d 3bbe 6c82 1fbe
000000e0: cdcc c8bb dba7 d7bc 010d ab3d 809f 8b3d
000000f0: efd4 ec3d d272 2c3b 6576 bebd 9e7c 3ebc
00000100: 1d84 96bd 3c46 8b3d 7684 ec3d d8bd 523c
00000110: 0ec2 00be 1533 653c b9be c93d b64d 2b3e
00000120: 8d9c 74bd d3b4 543d 20ca f83d 56e9 08bd
00000130: 728a e1bd 0b05 dfbd 5348 d8bd 97bb cebd
00000140: d582 c83c e694 223e 8406 a93b 5f76 b5bd
00000150: 8992 c2bb 5152 e93d 4f2c 353e 4439 41be
00000160: 24ea 30be 3a90 9e3c dc40 183e 2e0a 36be
00000170: c3fa 233e d199 113e 8f57 973d 96f1 f53d
00000180: cae2 02bd 2a05 ba3c 16d0 023e af47 28bd
00000190: ab09 e4bd 030a 32be dec9 833d 7dcc e8bd
000001a0: ffe4 033e d73d 113e 5da8 813d 02fe 06be
000001b0: 3804 c7bd 60ac 8a3d 1cbd 0cbe 86fb bbbd
000001c0: 76f2 3f3d d2ec 25bd 5e04 953d 5269 08be
000001d0: a128 29be 2873 9c3d 2e06 14be 2370 a53d
000001e0: 4639 e13d a14f e13d b6a0 4b3e 5e96 233e
000001f0: 0514 00be 8c7c eebc d5fb 78bd fd8f 373e
00000200: 31c2 8c3d 13e1 05be 86c9 4a39 9bff b23d
00000210: cd88 ea3d e4c0 103d 2aef a5bb 9ccd ffba
00000220: 5300 75bd 821c 363e a6c0 083e 87a5 a0bd
00000230: c0dc adbd e814 48be 8789 c4bd 9dca c2bd
00000240: ddbf 8abc 4d8c 16be 10c4 183e 0dc8 ae3d
00000250: 44a2 5bbc 2100 2fbe c734 ba3d f9f8 213e
00000260: a19c 34be b245 9b3d 73e1 6fbd 2e5c 20be
00000270: 1ef8 c2bd 439b 1fbe 5298 28be 9555 f1bd
00000280: ea89 263d 54cf 033e 5cc1 4e3e b076 1bbe
00000290: d960 81bd e830 063e 7773 de3b fde0 343e
000002a0: 1a00 f63d 52eb 453e 7a2d 7ebd e325 23be
000002b0: f7e4 2bbe e953 dabb d6f0 16be 97ba 6cbc
000002c0: 6ab5 3f3e 15c7 69bd 62fc 15b9 1b55 7a3d
000002d0: cea7 a9bd 3160 373e 7f93 f03d 3d07 1ebd
000002e0: 9457 393e ee2b 05be c823 ffbc 1265 813c
000002f0: 9114 c13c c2e2 8b3d b1c0 523d 44af 15bc
00000300: ebcb ba3c 093b 153d 97f8 0a3e 4b2b 3ebe
00000310: 211c 043e 476d a4bd 826a ed3d 41d4 b83d
00000320: ee39 bf3d 92cd a93d 08da 2d3e 6694 1a3e
00000330: 5f3a 1abe e5dd 96bd 4dee 913d ef0e 97bd
00000340: daad cbbd 81e3 5e3d a7a9 0fbe 01fd 45bd
00000350: 2bf0 c03d c953 4b3d 25d6 b23d 0aa8 82bd
00000360: 293e 303e 32d9 54bd c061 02be cce0 ce3d
00000370: ea5b 4abe 064a c23a 91ab 3abe 40fb 1dbd
00000380: 24ff d7bd 8761 8d3d bd1c 073e 80a5 703d
00000390: 621c b4bd a774 febd ffcc 8e3c fe39 43be
000003a0: 9af4 fdbd eb40 b5bc dc01 0cbe 3c23 9fbd
000003b0: 5c7a f7bd 55a5 123e 187c a7bd 5ac0 a83d
000003c0: d891 403d 29ac b2bd 85fb 493e 3f56 8abd
000003d0: 6f0c 203e ea3c f6b9 2178 95bb 0fff 45be
000003e0: 3093 fb3d 4ad6 b9bb e3b4 79bd 210d f3bd
000003f0: 1837 17be d90f d03d c146 df3d 682b 45be
-0.05610044 -0.028551789 0.14123976 -0.047038767 0.20081332 0.032253623 0.19754066 0.042142823
0.16992205 -0.13323845 -0.12234905 0.10790821 -0.11506002 0.18410508 0.0016673062 0.060980704
-0.036276486 -0.017972965 0.105851814 -0.1755254 0.010106637 0.13638274 -0.095474 -0.13362491
0.06112335 0.014168531 0.15100755 0.15834819 0.18456937 -0.013026876 0.11438628 -0.1606847
-0.15220143 -0.023503633 -0.14793584 0.1962376 0.14654543 -0.15777202 -0.13135298 0.14181446
0.16880515 0.010507179 -0.13078608 0.09278943 -0.14290544 -0.14017116 0.052219268 0.09094229
0.0117355315 0.14578497 -0.077245265 0.00583093 0.17724964 0.0830984 -0.18309605 -0.15577096
-0.00612793 -0.026325157 0.0835209 0.068175316 0.11564051 0.0026313555 -0.09299926 -0.011626391
-0.07349417 0.068005055 0.115487024 0.012862645 -0.12574026 0.01398923 0.098508306 0.16728863
-0.05971961 0.05193026 0.12147927 -0.03342565 -0.110127345 -0.10889634 -0.1056067 -0.10094374
0.024476448 0.15877113 0.0051582474 -0.08860468 -0.0059378785 0.11392654 0.17692684 -0.18869501
-0.17276818 0.019355882 0.14868492 -0.1777732 0.16013627 0.14218833 0.07389747 0.120089695
-0.031954564 0.02270754 0.12774691 -0.041083988 -0.111346565 -0.17386632 0.064349875 -0.11367128
0.12880324 0.14183746 0.06330941 -0.13182834 -0.097176015 0.06771159 -0.13744015 -0.09178834
0.04686209 -0.040509053 0.072762236 -0.13321427 -0.16519405 0.07639152 -0.14455482 0.08078029
0.10997252 0.11001516 0.19885525 0.1597533 -0.12507637 -0.029112123 -0.06078704 0.17926021
0.068729766 -0.1307414 0.00019339295 0.08740159 0.11451874 0.035340205 -0.005063911 -0.0019516232
-0.059814762 0.17784312 0.1335474 -0.07844072 -0.0848937 -0.19539225 -0.09596544 -0.09511302
-0.01693719 -0.14701958 0.14918542 0.085342504 -0.013405386 -0.17089893 0.09092098 0.15817632
-0.17637874 0.07581653 -0.058564615 -0.15660164 -0.09519981 -0.15586571 -0.16464356 -0.117839016
0.04065887 0.12872058 0.20190948 -0.15181994 -0.063173 0.13104594 0.006788667 0.17663951
0.12011738 0.19328049 -0.06205509 -0.15932421 -0.16786562 -0.006662835 -0.14740309 -0.014448783
0.18721548 -0.057074625 -0.00014303767 0.06111632 -0.08283959 0.17907788 0.11746883 -0.03858112
0.18099815 -0.13005039 -0.031144992 0.015795264 0.023569377 0.0683036 0.051453296 -0.009136025
0.022802314 0.036433253 0.13571392 -0.18571202 0.12901355 -0.080286555 0.115925804 0.09024859
0.09337221 0.082911626 0.16977704 0.15095672 -0.1506133 -0.07366542 0.071255304 -0.07375895
-0.09945269 0.054416183 -0.14029561 -0.048336986 0.094208084 0.04964045 0.08732251 -0.06379707
0.17211212 -0.051964946 -0.12732601 0.1010147 -0.19761625 0.0014823086 -0.1822951 -0.03856969
-0.10546711 0.069033675 0.13194557 0.058751583 -0.08794476 -0.124245934 0.017431734 -0.19065091
-0.1240017 -0.022125682 -0.13672584 -0.07770392 -0.12083885 0.14320882 -0.08177966 0.08239813
0.047014087 -0.08724243 0.19724853 -0.067547314 0.15629743 -0.0004696616 -0.0045614396 -0.19335578
0.12283933 -0.005671297 -0.060963523 -0.118677385 -0.1476711 0.10159273 0.10902167 -0.1925484

bn.weight f4 [16]
00000000: dc25 823f bd5e 7d3f 9d34 7b3f b80a 803f
00000010: a322 823f d6fe 7b3f 2234 803f 73f6 803f
00000020: 4a13 803f 43b5 813f 36cd 7b3f a5f2 803f
00000030: a01c 7d3f 5291 803f 52c0 7f3f b289 7d3f
1.0167804 0.98972684 0.98127156 1.0003271 1.016682 0.98435724 1.001591 1.007521
1.0005887 1.0133442 0.9836 1.0074049 0.98871803 1.0044348 0.9990283 0.9903823

bn.bias f4 [16]
00000000: a9de 1e3c 4db8 99bb 0745 1fbc b620 593c
00000010: 4646 413c ad82 afbb dd4e 6b3b 3659 433c
00000020: 750f f3ba 2053 853c 5a21 283c db5e 453c
00000030: ee71 0cbc 8c28 1e3c f918 e13b 353a 44bc
0.009696641 -0.00469116 -0.009721047 0.013252428 0.01179654 -0.005356154 0.003590516 0.011923125
-0.0018544035 0.016274989 0.010261858 0.012046541 -0.008572085 0.009653222 0.006869432 -0.011976768

bn.running_mean f4 [16]
00000000: 805c 7a42 53cb 4142 866b c2c1 9a4e 2442
00000010: b7d6 b041 2f09 9dc2 b0d7 3a42 a3ff 6342
00000020: dbca 8dc2 6ff7 18c3 cb5f 8cc2 ae33 95c2
00000030: 1ca2 0640 1f1b ae41 aed2 d341 986e fb41
62.590332 48.44856 -24.302502 41.07676 22.104841 -78.51794 46.710632 56.999645
-70.8962 -152.96654 -70.187096 -74.60094 2.1036444 21.763243 26.47787 31.429

bn.running_var f4 [16]
00000000: 2532 9445 38df 4945 2224 e144 6a81 6545
00000010: f345 2545 845a a145 37d4 3145 0164 6345
00000020: df7b 9345 2425 3f46 37c1 8845 7605 a645
00000030: 7243 4a45 76f3 3345 4230 2845 cd6c 8f45
4742.268 3229.9512 1801.1292 3672.0884 2644.3718 5163.3145 2845.2634 3638.2502
4719.484 12233.285 4376.152 5312.6826 3236.2153 2879.2163 2691.016 4589.6

layer1.0.conv1.weight f4 [16, 16, 3, 3]
00000000: 4770 693d 24f3 8bbd 86cb ad3d 4233 193d
00000010: fa0b 8ebd 01c1 cf3a f498 cebc 9379 ff3c
00000020: bbfe ba3d dbb7 71bd c67f 65bd 2514 acbc
00000030: b633 623d 26af ecbc 557c 8dbd f082 b23d
00000040: 4de7 77bd 779a a2bd 9273 943d ee8f cc3d
00000050: 1f20 88bd 5120 6c3d e61a 55bd 4930 9a3d
00000060: daff 3cbc 3790 58bd 876e 833b 5875 983d
00000070: 193c 753d 41d2 f7bc 881b 66bd d469 52bd
00000080: 9afb c8bc aadf 8f3d 3299 6ebd acf7 fdbc
00000090: 557a f2bc cc3d 943d 1ea1 c73c c62d 4fbd
000000a0: c104 5fbd 0088 d03c 84ce 99bd 97d0 413d
000000b0: 8b69 8dbc 217f a63d 3d34 94bd c6f8 9ebd
000000c0: 257b 5fbd 50ed cdbc 8dea 7d3c 9b38 933d
000000d0: 4f54 c63c d3ee 713d 0d16 2fbc cc7b f4bc
000000e0: 0690 2abd b3ee 1fbd 9563 9d3d 3955 2b3d
000000f0: 82f2 a43d f36c 3abd 03fa 333d cec3 4bbc
00000100: 1553 52bd b736 32bd 5c81 8abd c564 46bd
00000110: 767d f0bc 3a1f acbc 2a88 f43c 8f7b 8dbd
00000120: b56f 853d 394d 8e3d 3cae 05bd 928b 88bd
00000130: 4b65 a83d e405 983d 1d64 55bd efe0 1ebd
00000140: 36ad 653d f8d9 9cbc 5bb8 403d 7a5e 923d
00000150: 5b7c 4c3d eb6f 51bc 0f96 6e3d 0b99 5dbd
00000160: 280c debc 54b4 7d38 12ea 80bc 87ea 133d
00000170: d6f0 333d 1e74 663d e029 14bd 7bc0 3d3d
00000180: 1a7c 59bd 91b4 a2bc acba 8a3c bcb4 9e3d
00000190: 8a12 4abd 791b 0c3c 68c4 0f3d bb17 1b3d
000001a0: 4259 8a3d a295 8a3d 4d05 fbbc b521 b1bd
000001b0: 0e3c 673d 73fa 0abc efa0 3cba a2be c4bc
000001c0: 7dae ba3c b318 44bc ae60 403d 3a3a 8e3d
000001d0: 3c4b 2bbd 814c 84bd 22d9 0ebd bd6b 6a3d
000001e0: 127e 4fbc 356f e7bc 712f 33bd 0920 99bd
000001f0: 26a5 883d 5faf 7bbd 5d5a 5a3d 433d 3d3d
00000200: c218 033d bb61 36bc 87ce 843d 115a 263d
00000210: f559 fa3c 5f7b 4ebd 6460 72bd 40db 9e3d
00000220: bebb a43d eaa5 bfbb 6e7c 07bd d545 74bc
00000230: a649 2a3d f410 763d dea1 93bd 71ec 803d
00000240: 6fe0 a13c 55ba c43b 0dad 4dbd 61af da3c
00000250: bc69 f73c cc23 a93a a0d9 14bd e2d8 743c
00000260: 904a 96bb f25d f5bc f339 5a3d eb5a 9dbd
00000270: a895 5ebd fa05 a6bd 13b4 4cbd 62b5 853d
00000280: 6662 613d 378a bcbd 2c67 b83c 9dc8 483c
00000290: 5569 28bd cb94 94bc e6be 913c 39ef 8f3d
000002a0: 2de0 e3bc 06e6 673d 062b 5abd e410 923c
000002b0: 5320 9fbd 50bc 82bd 0ae3 22bd 223a 51bd
000002c0: 5b33 883d e405 febc 0a56 52bd 6eb1 063d
000002d0: 8914 3abd 455b 91bd 109a 29bd 3cee adbc
000002e0: 1863 9abd 5af8 533d cc40 d13c 4493 40bd
000002f0: 9637 333d 08b3 d4bc 480b 853d 399a 4ebd
00000300: f720 24bd 624e 2abd a53b 68bd d616 5b3d
00000310: 9f05 563d dfb1 3ebd 61f3 8ebd 3742 fb3c
00000320: 3dad 903d d000 16bd 9c71 da3b dc99 7e3d
00000330: ef3d 693d adb3 08bd 5820 983d 4bd8 103d
00000340: bca1 843d 37c0 b13d d5ce 2abd 2509 40bd
00000350: eb8f 3e3b 5e00 96bd e356 813c 8a8d 17bd
00000360: a9b9 68bd 6812 ca3a 4f62 253d 0d0e 4cbd
00000370: 10b1 1abc a107 86bd c2e1 753c f450 5ebd
00000380: 763e 05bd 0dad b43b 0bfb 203d 4606 8a3d
00000390: 243a 33bc 9648 a23d e0ce 163d 99b3 143d
000003a0: 9f6d 903d 8575 563d 6b49 5c3c 0a92 6c3c
000003b0: e950 963d d6bc fcbc c7ab 6fbd 6dbd 7ebc
000003c0: f16e 613d 1375 b0bc 9484 563d e4f0 ad3d
000003d0: f7c9 27bd 5d69 ad3c 27f2 853d ddc5 b33d
000003e0: 25cb 06bc 6447 413d dfda 603d aba0 73bd
000003f0: b60a 1bbd 22f9 203d 6cb6 2ebd b2ca e1bc
0.05699184 -0.06833485 0.08486085 0.0374024 -0.06935878 0.0015850366 -0.025219418 0.0311859
0.09130617 -0.05901323 -0.056030057 -0.0210057 0.055225097 -0.028892111 -0.0690848 0.087163806
-0.06052332 -0.07939618 0.07248606 0.0998839 -0.066467516 0.057648007 -0.052027605 0.07528741
-0.011535609 -0.05287191 0.0040109786 0.074442565 0.059871767 -0.030251624 -0.0561786 -0.051370457
-0.024534035 0.070250824 -0.058251567 -0.031001888 -0.029599348 0.07238349 0.024368819 -0.050580762
-0.054447893 0.025455475 -0.07510093 0.047318067 -0.01726224 0.08129717 -0.07236526 -0.077622935
-0.0545608 -0.025137573 0.015497816 0.07188531 0.024210123 0.05906565 -0.01068641 -0.029844187
-0.041641258 -0.039046 0.076850094 0.04182932 0.08054067 -0.04551406 0.0439396 -0.01243682
-0.051348764 -0.04350921 -0.067629546 -0.048435945 -0.0293567 -0.021010984 0.029850084 -0.069083326
0.06515447 0.06948323 -0.032636866 -0.06667246 0.08222445 0.074229985 -0.05209743 -0.038788732
0.05607339 -0.019146904 0.047050815 0.07146926 0.049923282 -0.012783031 0.058248576 -0.05410103
-0.027105406 6.0487844e-05 -0.015736613 0.036112335 0.04393085 0.05626308 -0.036172748 0.04632614
-0.053096868 -0.019861491 0.016934715 0.07749316 -0.049334086 0.008551472 0.035099417 0.037864428
0.06755306 0.067668214 -0.030642176 -0.08649007 0.056453757 -0.008482563 -0.0007195612 -0.024016682
0.02278828 -0.011968779 0.0469672 0.069446996 -0.041819796 -0.064599045 -0.034875043 0.057231653
-0.012664335 -0.02825127 -0.043746416 -0.07476813 0.066721246 -0.061446544 0.053308833 0.046201
0.032006033 -0.011131699 0.064847045 0.040613238 0.030560473 -0.050410625 -0.059173957 0.07756662
0.080436215 -0.005848636 -0.03307765 -0.014909227 0.041574143 0.06007476 -0.07208608 0.062950976
0.019760339 0.006003658 -0.050213862 0.026694955 0.030201785 0.0012904345 -0.036340356 0.014944287
-0.0045865253 -0.029952023 0.05327792 -0.07683357 -0.054341942 -0.08106609 -0.04997642 0.06528737
0.05502548 -0.0920605 0.022510134 0.012254861 -0.041116077 -0.018137356 0.017791223 0.0702805
-0.027816856 0.05661585 -0.053263687 0.01783032 -0.07769837 -0.06383574 -0.039767303 -0.05108083
0.0665042 -0.031008668 -0.051351584 0.032884054 -0.04542974 -0.070974864 -0.04140669 -0.021231763
-0.07538432 0.05175052 0.025543593 -0.047015443 0.043754183 -0.025964275 0.06496292 -0.050440047
-0.0400705 -0.041578658 -0.056697506 0.053488575 0.052251454 -0.04655635 -0.069800146 0.030671222
0.070642926 -0.03662187 0.0066663753 0.06215845 0.05694383 -0.033374477 0.07428044 0.035362523
0.06476161 0.0867924 -0.041701157 -0.04688372 0.002907748 -0.07324289 0.015788501 -0.037000217
-0.056817684 0.0015416862 0.040376958 -0.049818087 -0.009441629 -0.06544424 0.015007438 -0.05427642
-0.03253027 0.0055137933 0.039301913 0.06739478 -0.010939155 0.07924001 0.036818385 0.03630409
0.070521586 0.05235817 0.013445239 0.014439115 0.07339651 -0.030851763 -0.05851343 -0.015548092
0.055037443 -0.0215402 0.05237253 0.08493212 -0.040964093 0.021168405 0.065403275 0.08777974
-0.008227144 0.047187224 0.05489623 -0.059479397 -0.03785201 0.03930009 -0.04265444 -0.027562473

layer1.0.bn1.weight f4 [16]
00000000: 3e67 7e3f 2409 803f cffa 803f 3ee7 7a3f
00000010: b354 7f3f 4f00 7f3f b2ee 7a3f 44c9 803f
00000020: 5f2f 803f 09cc 823f 438b 813f 2a77 823f
00000030: 86de 803f f679 7b3f 9505 7f3f 3547 7e3f
0.99376285 1.000279 1.0076541 0.980091 0.99738616 0.99609846 0.9802047 1.0061421
1.0014457 1.0218517 1.0120624 1.0192616 1.0067909 0.9823297 0.9961789 0.99327403

layer1.0.bn1.bias f4 [16]
00000000: f39a cbbb 113d 343b af34 9e3b 1500 efbb
00000010: a2f5 d43a 2dd0 393b cc2e 453b ae4f f43b
00000020: 56fc 4339 19e9 513c a250 163c 75c3 903c
00000030: 4c27 3a3c b027 c8bb 435f c73b 0263 18bc
-0.0062135397 0.0027502219 0.0048280577 -0.007293711 0.0016247521 0.0028352842 0.0030087708 0.0074557876
0.00018690652 0.0128119225 0.009174498 0.017671326 0.011361908 -0.0061082467 0.006084354 -0.009300949

layer1.0.bn1.running_mean f4 [16]
00000000: 1599 103e beba 973d 3c62 0f3e 5fcc 6f3e
00000010: 6876 6bbd 6c89 b4be cf75 f0bd 14d7 743a
00000020: 1b90 01be a5d7 78be 802c a2bd f941 88be
00000030: 51a8 dcbe a5b8 f03d 5c00 d63e cdf3 a9be
0.14120896 0.07408665 0.14002317 0.23417805 -0.057485968 -0.35261095 -0.1174122 0.00093399105
-0.12652628 -0.24301012 -0.07918644 -0.26612833 -0.43097165 0.11753968 0.4179715 -0.33193818

layer1.0.bn1.running_var f4 [16]
00000000: bd6d 4e3e 7971 403e 2771 343e 99ad 823e
00000010: c581 1c3e ec95 e43d 02c9 fd3d 67cd 2d3e
00000020: 1bcb c23d 390f f33d f882 543e 99c0 0b3e
00000030: bb8e 0d3e 103b 0f3e 400c 463e 8d16 583e
0.2015905 0.18793286 0.17621289 0.2552307 0.15283878 0.11161408 0.12391855 0.16972886
0.095113955 0.11868138 0.20753086 0.13647689 0.13823979 0.13987374 0.1934061 0.21102352

layer1.0.conv2.weight f4 [16, 16, 3, 3]
00000000: 317c f93c 263c 8dbd 3d2c 713d 6131 06bd
00000010: ec77 9c3b c89f d0bc 23b1 64bd 7292 73bd
00000020: 4fdb de3c a951 30bd a66f 983d d9aa 0bbd
00000030: 75df 3cbd 205e 7a3d ea53 773d 3380 febb
00000040: f286 0bbd 0de7 043d 407d 8abd 7905 d3bc
00000050: 08ad 48bc 6c0d 0d3d 7976 9bbd e39e 82bd
00000060: efae 89bd 4a1d 81bd 32f6 39bc a43d 463b
00000070: 5dda fc3c 35d5 97bd 4ae7 45bc d88c 86bd
00000080: 37cf 6e3d 325c 1dbd 2ec8 9bbd 0dba 16bd
00000090: f5ec a73d b5de 81bd b9bf b5bc 5d07 b5bd
000000a0: c9a7 9cbd 5f39 313d 210f 09bd b24a f03c
000000b0: f009 873d 5fd9 0bbd 4a9f 9dbc 8e68 3bbd
000000c0: 11f5 f53c d80f 86bc f9cf e6bc 615f 543c
000000d0: 50b0 ea3c 1077 9d3d 5120 af3d 389a 7ebd
000000e0: 96d2 df3c 92d5 0038 b9a3 2abd 6f56 f3bc
000000f0: bff4 33ba c342 5dbd d133 7cbd 5e9d 7d3d
00000100: 72bb 7e3d 4e78 163d 3b62 033d bdea db3a
00000110: 66d5 dcbc ed67 f3bc 52bb 3ebd a661 943c
00000120: 9b28 8e3c 072d 67bb 1b71 2cbd 4e31 1d3d
00000130: 5177 8cbd d140 8f3d 4ce7 11ba 4394 803d
00000140: 7161 0abd 6b60 7c3d e56b 183d fd56 13bd
00000150: 7677 263d 580e 0c3b 35a7 8a3d 5c8b 0a3c
00000160: 3f72 fd3c 8628 93bd 341f 88bc 77eb 7bbd
00000170: 755f cbbc dcac 073d d306 24b8 57ea b23d
00000180: ffde 323d 616d 583d 787e eabc 7fa6 123d
00000190: 4374 41bb fe4c 25bd 1cf2 9bbd 1ad7 913c
000001a0: 22ea 2d3c a0eb d13d b1c9 823d a857 c13d
000001b0: 8f15 c3bd 5a08 9ebd 610c f0bc d302 49bd
000001c0: b6a1 e1bb e347 efbb 2481 afbb 5b8c 303d
000001d0: 22ac 7ebd e292 b93c e5e1 823b 694e 083d
000001e0: df46 bcbd c4cc 4b3d 7433 43bc 8c72 3c3d
000001f0: fc60 5c3c 0e28 febc 9078 993d 7c41 e3bc
00000200: ca47 273d b67f 7b3d 2df1 a2bd 67b4 5c3b
00000210: c32f 1ebd e796 31bd e76f b8bc ddf6 cebc
00000220: 34a0 5cbc b172 8dbc e926 873d d86d 8dbd
00000230: e532 97bd 3669 1dbd 75fe 27bc 2c75 a2bc
00000240: 2bfa 9fbc 7495 47bd 7b78 96bc b59c b53d
00000250: fcc1 993d 817d 5abd ad80 31bc 0899 3ebd
00000260: 38cf 193c 382d 2a3d 8a3b 753d 1510 263d
00000270: 10f9 92bd 755f 95bd 0857 25ba 8069 203c
00000280: dc44 793c 11a8 573d 2b73 4cbd 4ffb 8a3c
00000290: 968c 24bb 8974 4f3c a3c8 4e3d 74b3 90bd
000002a0: 9d85 873c 6877 763d 1bc5 68bd 44dd acbc
000002b0: 6e93 a93d 7d81 a7bc 92bf 5ebd a018 f1bc
000002c0: 2ddd 803d ad57 623d a1db 83bd e313 813c
000002d0: 125c a3bd e895 eabc 3d73 80bd eb7a 9b3c
000002e0: a75d 593c 6bd3 c5bc 7acb 36bd e399 05bc
000002f0: 1f09 82bd fa91 8f3d f5b5 9d3d 52eb 8fbc
00000300: a185 c43c 0ed2 b0bd 0a4e 90bd ef42 383d
00000310: 0b46 62bc 1bfc db3c 79bf b63c a4fb 84bd
00000320: 6e4f a1bd f900 393d a3ab f3bc 6073 933c
00000330: 7429 293d 99ff 90bd 5ea4 eabc 0115 33bd
00000340: 620c a33b ec8e cfbb 8d09 c8bc 2ca9 063c
00000350: 32f8 a7bd 51b8 653d 0fe4 743d d3ef 833d
00000360: 8c33 313d 1d75 a93d 316a 1a3d f34a ab3d
00000370: e62b 733d 9b75 4c3d da44 8e3d ad9b 1abd
00000380: 32c8 92bd 75d7 8d3d 392c 8dbd c0e7 473d
00000390: c923 86bc 2713 00bb 81e6 4f3d c00d d5bc
000003a0: 6dd7 843d 8bb3 1bbd ec1d eb3c 5c4a e43c
000003b0: 9499 58bd 7bc5 2abd 5b90 623c 0871 2abd
000003c0: ef55 7bbc 1979 1ebd b28d 103d 28d2 343d
000003d0: 13ec b03c fa9d bebc 64e2 753d 8090 8dbd
000003e0: 3f4d cabb 8cdc 89bd 08ec 663a ee8d 8d3d
000003f0: 9050 90bc 0bbe 94bd 13da 7bbb 288b 5f3d
0.030454727 -0.06896238 0.05888008 -0.032761935 0.004775038 -0.025466815 -0.055832993 -0.059465833
0.027204184 -0.043046627 0.0744317 -0.03409848 -0.046111543 0.06112492 0.06038276 -0.0077667474
-0.03406424 0.03244691 -0.06762171 -0.025759446 -0.012248285 0.03443663 -0.07590956 -0.063779615
-0.06722819 -0.063044146 -0.011350201 0.0030249143 0.030865842 -0.07413713 -0.012079069 -0.065698326
0.058303084 -0.038418002 -0.076065406 -0.036798526 0.08199493 -0.06341306 -0.022186147 -0.08839295
-0.0764919 0.043267604 -0.033461694 0.029332493 0.06593692 -0.034142848 -0.019240994 -0.045754008
0.030024083 -0.016364977 -0.028175341 0.012962193 0.028648525 0.07688725 0.08551086 -0.062158793
0.027322095 3.071648e-05 -0.041660044 -0.0297043 -0.0006864778 -0.054018747 -0.061572853 0.061917655
0.06219048 0.036735825 0.0320761 0.0016778331 -0.026957225 -0.029712642 -0.04656536 0.018112969
0.017353347 -0.003527464 -0.042100053 0.0383771 -0.06858695 0.069947846 -0.0005565777 0.06278279
-0.033784334 0.06161539 0.03721227 -0.03597163 0.04064127 0.0021370854 0.067701735 0.008456077
0.030938266 -0.071854636 -0.016616441 -0.061503854 -0.02482579 0.033123836 -3.9107003e-05 0.08736103
0.043669697 0.052838687 -0.028624758 0.035803314 -0.002951876 -0.04035663 -0.07614538 0.017802764
0.010614904 0.1025002 0.06386126 0.09440547 -0.09525596 -0.07716437 -0.029302778 -0.04907496
-0.0068857325 -0.0073022707 -0.005355971 0.043102603 -0.062175877 0.022653047 0.003994214 0.033277903
-0.09193205 0.049755827 -0.011914123 0.046007678 0.013450857 -0.031024959 0.074936986 -0.027741186
0.040839948 0.06140109 -0.07956157 0.0033676864 -0.038619768 -0.043356802 -0.022514297 -0.025264198
-0.01346593 -0.017266603 0.065992184 -0.06905717 -0.07382754 -0.038430415 -0.010253538 -0.019831263
-0.01952847 -0.048726514 -0.018367996 0.0886778 0.07507703 -0.053342346 -0.010833901 -0.04653266
0.009387784 0.04154703 0.059871234 0.04054268 -0.07176411 -0.072935976 -0.0006307219 0.009790778
0.015214171 0.052650515 -0.04991452 0.016965536 -0.002510821 0.0126620615 0.05048431 -0.07065478
0.016543204 0.06017247 -0.0568286 -0.021101601 0.08280073 -0.020447487 -0.054381914 -0.029430687
0.06292186 0.055259395 -0.06438375 0.015756553 -0.079765454 -0.028635934 -0.0627198 0.01897951
0.013266957 -0.024148664 -0.044627644 -0.008154365 -0.06349396 0.07010265 0.07700721 -0.017568264
0.0239895 -0.08633815 -0.07046135 0.044985708 -0.013810645 0.026853612 0.022308098 -0.06493309
-0.07876478 0.045166943 -0.029744929 0.017999351 0.0412993 -0.070800014 -0.02864283 -0.043721203
0.0049758414 -0.0063341763 -0.024418617 0.008219045 -0.082016364 0.05608398 0.059787806 0.06442227
0.04326205 0.08274291 0.03769893 0.08363905 0.059368037 0.049916845 0.06946726 -0.03774612
-0.071670905 0.06925861 -0.068932004 0.048805 -0.016374486 -0.0019542666 0.050756935 -0.026007533
0.06486402 -0.038013022 0.028700791 0.027867489 -0.05288084 -0.04169224 0.013828362 -0.0416117
-0.015340312 -0.038689706 0.03529138 0.044145733 0.021596944 -0.023268688 0.060030356 -0.06912327
-0.0061737592 -0.06731519 0.0008808975 0.069118366 -0.01761654 -0.0726281 -0.0038429543 0.05457607

layer1.0.bn2.weight f4 [16]
00000000: ca9e 803f d50f 803f f7a9 813f b2fc 7d3f
00000010: 1d4f 823f 46b2 7e3f 6533 7e3f 7300 803f
00000020: 9329 803f 79e2 803f 8088 7d3f 2f02 7f3f
00000030: 70e6 7d3f 1a5b 813f f66f 803f 20c1 803f
1.0048459 1.0004832 1.0129994 0.9921371 1.0180393 0.99490774 0.9929717 1.0000137
1.0012687 1.0069114 0.9903641 0.99612707 0.99179745 1.0105927 1.0034168 1.0058937

layer1.0.bn2.bias f4 [16]
00000000: 8bfa 973c 4db7 10bc a17b 3b3c c8a8 87bc
00000010: 7ff3 f43b 01a3 0fbc 26ea ac3b c444 873c
00000020: 359d 5f3b c2f1 8b3b 4f9f 8b3b dd82 923c
00000030: 9ee1 953a 15cc 533c f78a 323c 113c 95bb
0.018552085 -0.008832765 0.01144305 -0.016559973 0.007475316 -0.0087668905 0.005276936 0.016512282
0.0034120802 0.004270763 0.0042609344 0.017884666 0.0011435037 0.012927075 0.01089739 -0.0045542796

layer1.0.bn2.running_mean f4 [16]
00000000: 6a97 9ebe 04fa 4f3d da0e 1abe 1c82 10bd
00000010: e2c5 0dbd 1185 013e 2dfd fc3d 1b76 093e
00000020: 00ea 2abe 1c46 70be ee7c 9a3d b92a 9c3d
00000030: 15f5 bf3e 9ade 2c3c 0945 393e 43b2 253e
-0.30974895 0.050775543 -0.15044728 -0.035280332 -0.034612544 0.12648417 0.12352977 0.1342396
-0.16690826 -0.23464245 0.0754336 0.07625336 0.3749167 0.010551119 0.18092741 0.16181283

layer1.0.bn2.running_var f4 [16]
00000000: 4eb6 283e fca2 ef3d 5980 9a3e 629a ff3d
00000010: eeb8 0e3e 7a54 123e 67b1 313e 870a c73d
00000020: 3948 f63d 32fe eb3d 0a6c 6a3e 2c45 033e
00000030: 6597 383e 0a5d 193e a1ee f83d addd 733e
0.16475794 0.11701009 0.30176046 0.12480618 0.13937733 0.14290038 0.1735283 0.09718805
0.12025494 0.11523093 0.22892776 0.12819356 0.18026502 0.14976898 0.1215489 0.23815031

layer1.1.conv1.weight f4 [16, 16, 3, 3]
00000000: 04bd 11bd 0cf9 973d 487c d53c 9dd7 d83c
00000010: 1d4d 403c 5d32 42ba 569a 9ebd 1de0 6cbc
00000020: e5b2 d4bc e080 563d 428e 1a3d e903 75bd
00000030: 53b3 80bd d0de b63c 6111 15bd 41a1 16bd
00000040: 3420 523d cf48 5d3d 1bfa c63c 2315 3c3c
00000050: 3450 4f3c 375d 053c b002 9a3d 3346 1cbc
00000060: 20c1 6ebd 6d3a df3c 8d4e 673d 317c 9f3d
00000070: 852d 893d 195c fa3c 96bc 0e3d 0030 7fbd
00000080: dfdd e43c 2a8f 2cbc 7483 34bc e6d0 5a3d
00000090: 542f 9abd f527 2dbd 7a7f b13b 4a16 1cbd
000000a0: 236d 9d3d 0851 94bd c04e b43d 3e09 dabc
000000b0: 5d43 ba3d dfcd 10bd 759a 85bd 7155 8dbd
000000c0: 3d7f 78bd 4853 063c 3db2 0abd 4aae 5a3b
000000d0: 2b54 a83c 93f7 1d3a e836 8e3c d84e 84bc
000000e0: aa48 67bd 1e66 31bd 8e10 5dbd 28ca eb3c
000000f0: ed75 0abd 8881 783d 078f 533d fbea 66bc
00000100: 9dd6 cb3c dee4 8bbd aaa4 61bd 6877 893d
00000110: 045f 093c 526d 2c3d b1c0 473d 2e05 fdbc
00000120: 21b7 5e3d 697d d1bd 1719 47bd 8154 8bbd
00000130: b550 8ebd 1316 77bc 0289 26bd 66e6 623d
00000140: 6c61 72bd 9437 63bd a0e6 3b3d 68f5 89bd
00000150: 959f dabc 20e0 3f3d 3974 733d 04d0 4f3c
00000160: b783 b73b da55 823d 98c5 83bb 70dc 02bd
00000170: 75b7 263b 05d6 223c 5f9c 563d 54b8 b5bc
00000180: 5cdd 75bc 50c8 903d fcfe 853d 812d edba
00000190: d79a 5cbd 114d 873d 8bca 4ebb 7331 f4bc
000001a0: 0342 573d 1504 3c3d a781 433d 463e 1c3d
000001b0: 6121 9cbc 732c 67bc 9ab4 4dbd 0f7a 353c
000001c0: 8f94 983c e63e c6bb 9f26 4dbc 24bf 8fbd
000001d0: 425a a43d a8f0 513d b70a 75bd 4a9a 433d
000001e0: 81b2 143d c5d8 64bd 960f 3abc c23a b63c
000001f0: c093 653d e58f 52bc d8c6 a83c ef8a 4cbd
00000200: bf41 983c b927 0fbd 7eee 56bc 05ed d13c
00000210: 9c34 973d 458a 6ebd 207d 7a3d 129c a8bc
00000220: 649d 263a 98b9 01bd eeb0 8fbc 4a12 8fbd
00000230: d298 803d 6494 26bd 591c f73c 113e b1bc
00000240: 5dfb 993d 0897 823d a58b 243d 5a22 a8bd
00000250: 19b2 413d 2429 863d 18b9 473d e588 843c
00000260: a432 56bd 39f6 16bc bd67 9a3d 4fbd 403d
00000270: 018a ad3b 4a98 883c 0831 99bd 1e64 88bd
00000280: 7438 5dbc 2106 5dbd 3712 79bd 6cd3 1fbd
00000290: 44bb c2bc fd68 8fbd 055e 7abc b177 323d
000002a0: 558a cc3c 60c7 dd3c c9b7 173d 1c47 e63b
000002b0: 1082 50bd d1b9 4f3d 6988 b0bd 68ed 8a3d
000002c0: 42dc 2ebd 6869 25bd 0198 c7bb fd18 9dbb
000002d0: c850 f9bc c3c8 8e3d 39e8 4eb9 0532 e0bb
000002e0: 4128 8abd b00c 433d 8411 f63c a5f4 2fbd
000002f0: 54f7 78bd 0144 a93d 7d7f 403d c385 433c
00000300: b534 a13d db55 17bc dd27 09bd 1d70 aa3d
00000310: 719a be3c fecb 9bbd 45fa 533d 40d2 013c
00000320: 0791 97bd 767d 8b3d a6b0 d4b9 04d8 163c
00000330: 76ec 7a3d 100d b5bd 62c3 ee3b ebe2 3b3d
00000340: 5d5b dcbc 07fa 46bd 5676 82bd 7748 3f3d
00000350: 7109 c4bc a159 283b 3f96 92bd cdef dbbc
00000360: 0815 1abd 0f9a 3abd 9cd3 21bd 5bf7 6d3a
00000370: d5f9 a1bd 19f1 a5bc 7756 97bd a666 8ebc
00000380: 6b25 abbd f652 103c 2921 a03b 4e8f ae3d
00000390: afc1 5fbc 3faf 3ebd d151 85bb 7998 5dbd
000003a0: 873e 3b3d b846 9f3c c414 50bd 587f 5dbd
000003b0: 7006 743c 1286 84ba 5536 703d 316d 67bc
000003c0: 64a2 95bd 8816 843d 9aea 633d a04c a4bb
000003d0: f2d1 4bbb bd0d 29bd 2f5f 8cbd 9912 953d
000003e0: 2d90 d43c 744e f33c 0f38 5fb9 4d76 833d
000003f0: 924a 8cbc cdf4 92bd 9d5c 38bc 895e 3abd
-0.03558065 0.07420549 0.026060238 0.02647 0.011737135 -0.00074080174 -0.07744281 -0.01445773
-0.02596421 0.052369 0.037733324 -0.059818182 -0.062842034 0.022323042 -0.036393527 -0.036774877
0.051300243 0.054024514 0.024289181 0.011479649 0.012653399 0.0081399 0.07520044 -0.009538221
-0.058289647 0.02724954 0.056471396 0.077873595 0.06698135 0.030561494 0.03484782 -0.062301636
0.027937828 -0.01053218 -0.011017669 0.053421877 -0.075285584 -0.042274434 0.0054168077 -0.038107194
0.07686832 -0.07242018 0.08804083 -0.026615735 0.0909488 -0.035352584 -0.06523601 -0.06901062
-0.06066822 0.008198567 -0.033861388 0.0033368045 0.020547947 0.0006025966 0.017360166 -0.016150877
-0.056465782 -0.043310277 -0.053970866 0.028782919 -0.03380387 0.060670406 0.051650073 -0.01409411
0.024882609 -0.06830762 -0.055088677 0.06712228 0.00838447 0.042096443 0.04876775 -0.030886259
0.054373864 -0.10228998 -0.048607912 -0.06803227 -0.069489874 -0.0150809465 -0.040658005 0.055395506
-0.05917494 -0.055472925 0.045874238 -0.06736261 -0.026687423 0.0468446 0.05943701 0.012683872
0.0056004184 0.06364031 -0.0040213577 -0.031948507 0.0025438939 0.009938722 0.05239522 -0.022182621
-0.0150063895 0.070694566 0.06542775 -0.0018095226 -0.053858604 0.06606496 -0.003155383 -0.029808735
0.052553188 0.04590233 0.047731068 0.038145326 -0.019058885 -0.014109719 -0.050221063 0.011076464
0.018625526 -0.0060499785 -0.012521415 -0.07018879 0.08025028 0.0512549 -0.05982467 0.047754563
0.036303047 -0.05587079 -0.011356255 0.022244815 0.05604911 -0.01285169 0.020602629 -0.049937185
0.018586038 -0.03494999 -0.013118384 0.025625715 0.07383081 -0.058237333 0.061154485 -0.020582233
0.00063558505 -0.031671137 -0.017540421 -0.0698591 0.06279148 -0.04066886 0.030164884 -0.02163604
0.07518647 0.06376463 0.040172238 -0.08209677 0.047288988 0.06550816 0.048760504 0.016178558
-0.05229439 -0.0092139775 0.07539318 0.04705554 0.0052959924 0.01667418 -0.07480055 -0.06659721
-0.013502229 -0.053960923 -0.060808387 -0.039019987 -0.023770936 -0.07002447 -0.015281205 0.043571178
0.024968306 0.027072608 0.037040506 0.00702752 -0.050905287 0.050714318 -0.08619768 0.06783563
-0.042690523 -0.040383726 -0.0060911183 -0.0047942386 -0.030434027 0.06971886 -0.000197322 -0.0068419003
-0.06745959 0.04761952 0.030037649 -0.04295792 -0.060782745 0.08264924 0.046996582 0.011933747
0.07871381 -0.009236778 -0.033485282 0.08322165 0.023267003 -0.07607268 0.051752347 0.007923663
-0.07400709 0.06811039 -0.00040567404 0.009206776 0.061260663 -0.08840382 0.007286475 0.045870703
-0.026899034 -0.04857829 -0.06370227 0.046699967 -0.023930283 0.0025688189 -0.071575634 -0.026847744
-0.037617713 -0.045557078 -0.039508447 0.00090776914 -0.0790898 -0.020256566 -0.07389539 -0.017382931
-0.08356746 0.008808842 0.0048867655 0.08523427 -0.013657018 -0.046553846 -0.004068591 -0.054100487
0.045713928 0.019442901 -0.050801054 -0.054076523 0.014894113 -0.0010110757 0.058645565 -0.014125154
-0.07306364 0.0644961 0.055643655 -0.005014017 -0.003110048 -0.041272867 -0.06854092 0.07278938
0.025947655 0.029700495 -0.0002128782 0.064190485 -0.017125402 -0.07175598 -0.0112525495 -0.045500312

layer1.1.bn1.weight f4 [16]
00000000: 16d9 7c3f 3527 803f 6aec 7d3f 2d7a 7e3f
00000010: 9ef7 803f 938e 7e3f 8bd4 803f 492c 7f3f
00000020: b6ab 803f 2528 803f 5570 813f 4947 803f
00000030: 7dd1 7f3f c16b 803f 4b3c 7f3f 30c8 7e3f
0.98768747 1.0011965 0.99188864 0.99405175 1.0075567 0.994363 1.0064863 0.9967695
1.0052402 1.0012251 1.0112406 1.0021755 0.9992903 1.0032884 0.99701375 0.9952421

layer1.1.bn1.bias f4 [16]
00000000: ba32 c4bb 0a56 8439 b0ab 1abb 7e26 e2bb
00000010: 8d15 d8ba daf4 f73a 6d89 50bc 7a39 14bc
00000020: af99 163c 8779 433c cb49 6c3c 651c 07bc
00000030: 920e 97bb 4914 513c 28f1 923a 5f40 36bc
-0.0059874924 0.00025241106 -0.002360087 -0.0069015613 -0.0016485915 0.0018917576 -0.012728077 -0.009046907
0.009191914 0.01193083 0.0144218905 -0.008246516 -0.004609891 0.012761184 0.0011210786 -0.011123746

layer1.1.bn1.running_mean f4 [16]
00000000: a581 dd3d c965 3a3e 3793 8cbe 0266 babe
00000010: ed5f 1d3f 943b f33e f141 a43e 642b 3bbc
00000020: b388 87bf 3c24 d63d 2629 dfbd 8ea9 453f
00000030: 150e 8e3f 467c 9fbe 1572 c13e f9de 3f3e
0.10815743 0.1820289 -0.27456066 -0.3640595 0.61474496 0.47506392 0.3208156 -0.011423919
-1.0588592 0.1045613 -0.1089652 0.77211845 1.1098047 -0.311495 0.3778235 0.18737401

layer1.1.bn1.running_var f4 [16]
00000000: 2193 8b3e 1da3 593e 2bc9 c33e 34fb e53e
00000010: 3349 b83e 5f31 893e 102b 873e 075a 5a3e
00000020: 7b4f 083f 0f71 e73e 818b e33e 9ce5 0c3f
00000030: b6f6 ba3e 0a8b a73e 6599 a53e 93e8 953e
0.27260688 0.21253629 0.38239416 0.44918215 0.35993347 0.2679548 0.26400042 0.21323405
0.5324628 0.45203444 0.4444237 0.55037856 0.3651635 0.32723266 0.32343593 0.29279003

layer1.1.conv2.weight f4 [16, 16, 3, 3]
00000000: 6169 26bc 965e 91bd 47b6 d43c ab0c 433d
00000010: 2766 763d 05bb a6bc b038 c0bc ddc6 3d3c
00000020: 30e9 c7bc ba63 d3bc 66e6 983c 8324 a33d
00000030: c744 8abc 4c0b efbb b500 55bd 766f 30bd
00000040: 3304 213d b798 59bd 3779 f4bc 8766 8fbd
00000050: 0795 d3bc bd8a ebba 1bb3 ad3c ed53 69bc
00000060: 2a63 cc3c 6714 59bd 575c 413d 5ae6 8fbd
00000070: 6cf6 c2bc f0f0 0b3d 514b 44bc 6a00 a13d
00000080: 94c9 cfbc 904d 8fbd cbc8 18bd 8466 52bd
00000090: 294c 0b3d 7d81 86bd fb18 a43a 66c5 a03d
000000a0: c307 a5bc 0fdd 073d b01a d0bc fe09 833d
000000b0: d05d 94bd edac 01bd 38b4 0bbd fa1a 7cbc
000000c0: 3a3a c8bb f91f ed3b 90eb a03d 055b e63c
000000d0: 287a 203d 01f9 bfbc 4c27 aebd ac3c 9a3d
000000e0: 7d71 9b3b 8ff2 9fbc f39e 3c3d 8cab 55bb
000000f0: 0825 923d c1e2 113d fd21 053d b7cd 9a3d
00000100: f5b1 763d 356b 5e3d c8f9 b2bc 53d5 703d
00000110: 185b 03bc bb37 173c 8701 a93d 5a2f 01bd
00000120: 8a31 59bd 215a 5c3c f26e d0bc 9c44 82bd
00000130: 0a52 8cbd d08d 32bd 0530 b2bc b8c1 3e3d
00000140: 939d 09bb 8fd8 96bd 5a90 1b3d 4a11 973d
00000150: daad 7c3b 6a16 d9bc 199b 1b3d 9257 02bc
00000160: 2042 753d 73aa 973d a195 77bc 429e 52bd
00000170: fd21 33bc 8367 81bd 25b9 933d 0431 933d
00000180: 57b8 b8bb 3c17 43bc 125a 0abd 2560 be3d
00000190: 0bf1 2dbb af43 8abd 90d6 50bc 33e6 903d
000001a0: 83db a43d d272 413c 9298 4ebd 9c94 f23c
000001b0: f173 003d 06fc 3cbd f3a5 5d3d ded8 ebbc
000001c0: eecb 0c3d 39e2 9d3c ab93 27bd d219 523c
000001d0: 4972 2e3d 7b15 893d a374 ed3b cd68 84bc
000001e0: 268d debc 0e6b 263b d80a a3bd 9914 cabb
000001f0: c735 673d 68f7 593d a5b6 f83c f7bd ba3d
00000200: 5cd8 15bd a947 d23b 3319 963d a370 9c3a
00000210: dc51 96bc da62 2dbc 7e96 1bbc b48d 853d
00000220: 83db a1bd c9f4 3fbd 5830 493d afce ae3c
00000230: fa79 8c3c d223 203c 0b32 563d 0316 79bd
00000240: a6f3 873d 59e3 b9ba 674d 8c3d ca4c 94bd
00000250: 5309 a6bd c0a5 9ebd 648f 203d 8cfa 79bd
00000260: 7023 80bd 8d2c 44bd 0fcc 233c c30c 363d
00000270: 3d1e 26bd 1b2b 9eb9 f06a 24bd 9cbc 4e3d
00000280: 9a20 abbd 21ee 8dbd 8f8d 303d b876 a4bd
00000290: 42a3 59bd fee6 0a3d add8 2f3d 2ddc 803d
000002a0: d8c4 9fbd 60f8 743c b40c 733d 5cb7 3b3d
000002b0: bda6 14bd 0f54 3cbd 5f32 b0bd 1ca2 943c
000002c0: 801b 0e3d 846b b23d 087d fd3c 06ad f5bb
000002d0: f78a 3b3d 384d dc3c 9d37 923d 765d 853d
000002e0: 0cd3 6abd 45ca 29bd 17f1 233d 6280 3fbd
000002f0: f8d1 7c3d bff1 5bbd d27d 453c 231c 9b3d
00000300: 6675 09bd 0502 363d 301f f1bc 2e75 9ebd
00000310: d86c 34bd 1d6e b83c b1ae a0bd d47d f03c
00000320: 8ffb 3b3c 8739 363d cd2b 92bd fe9e 63bd
00000330: bead 033d 1ba6 71bd 7ee0 a93c 98f2 16bd
00000340: 7f98 d8bb f960 983b a724 893d 44ef a5ba
00000350: 9e1b f3bc 4c9b 923d 0f39 923d 5ddc 1dbb
00000360: 9210 3abd 3432 033d dd04 993c d47a 48bd
00000370: 33df 9e3d ba67 1dbc 1536 b33d d574 463c
00000380: ac52 02bd d80b 4bbc 27e4 923d eeee c9bc
00000390: ec9a 393d f270 703d b628 69bd 75ac bfbc
000003a0: dc3a e03b ec46 993d 37d1 b43c 889c 33bd
000003b0: 5e9e 81bd 6274 37bd ee07 473c 283e a4bb
000003c0: deae 2c3d 8f1a 16bd e1c6 6f3d 606c 54bc
000003d0: 21d5 dd3b a74f a7bd c564 0a3d 4aca 36bd
000003e0: cf7e 40bd 64f2 a0bd 8d95 5a3d 9fab 1f3d
000003f0: 5c15 853c f84f 383d a18d b1bc 4a7e cebc
-0.01015696 -0.07098119 0.025965823 0.047619503 0.060156014 -0.02035285 -0.02346453 0.011583057
-0.024403185 -0.02580439 0.01866455 0.079659484 -0.016878499 -0.007295048 -0.052002627 -0.043075047
0.039310645 -0.053124156 -0.029842956 -0.070019774 -0.025827898 -0.0017970424 0.021203568 -0.014241201
0.024949629 -0.052997973 0.047207203 -0.07026358 -0.023799144 0.034165323 -0.011980847 0.07861407
-0.025364675 -0.06997216 -0.037300866 -0.051367298 0.03400818 -0.06567667 0.0012519652 0.07850151
-0.020145303 0.033169802 -0.02540335 0.0639839 -0.07244456 -0.031659056 -0.034107417 -0.015387291
-0.006110457 0.0072364775 0.0785743 0.028119573 0.039178997 -0.023434164 -0.08503589 0.075311035
0.0047437535 -0.01952484 0.046050023 -0.003260347 0.071359694 0.03561664 0.032503117 0.07558768
0.060228307 0.05430146 -0.02184762 0.05879719 -0.008017324 0.009229596 0.082522444 -0.0315393
-0.05302576 0.013449223 -0.025443528 -0.063607424 -0.06851585 -0.043592274 -0.021751413 0.046571463
-0.0020998463 -0.07365524 0.03797946 0.073763445 0.0038555772 -0.026499946 0.03798971 -0.007955449
0.059877515 0.074055575 -0.015111358 -0.051420458 -0.010933396 -0.063185714 0.07213048 0.07187083
-0.0056372094 -0.011907395 -0.033777304 0.09295682 -0.0026541378 -0.06751191 -0.012746468 0.07075157
0.08049681 0.01180716 -0.05043847 0.029611878 0.03136057 -0.046138786 0.05411334 -0.028789934
0.03437417 0.01927291 -0.04091231 0.012823539 0.04258946 0.0669355 0.00724657 -0.016163254
-0.027166914 0.00253934 -0.07961053 -0.006167006 0.05644777 0.05321446 0.03036053 0.09118264
-0.03658329 0.006417234 0.07329025 0.0011935424 -0.01834958 -0.01058265 -0.009496329 0.06521168
-0.07903197 -0.046864305 0.04911837 0.021338789 0.017148007 0.009774165 0.05229382 -0.060812008
0.06638269 -0.0014182135 0.06850701 -0.07241209 -0.08107247 -0.07746458 0.039199248 -0.061029956
-0.06256759 -0.04789405 0.009997382 0.044445764 -0.04055618 -0.00030168224 -0.040141046 0.05047284
-0.08355828 -0.06930185 0.04310375 -0.08030456 -0.05313421 0.033911698 0.042931248 0.06291995
-0.07801217 0.014951795 0.059338287 0.045829162 -0.036291827 -0.045978602 -0.086033575 0.018143706
0.034694195 0.08711913 0.030943409 -0.0074974326 0.045786824 0.02689229 0.07139514 0.06511967
-0.057330176 -0.041452665 0.040024843 -0.046753295 0.06172368 -0.053697344 0.012053924 0.07573726
-0.033559225 0.04443552 -0.029433817 -0.07737194 -0.044049114 0.022513444 -0.0784582 0.029356875
0.01147355 0.044488456 -0.071372606 -0.05557155 0.032148115 -0.0589963 0.020736929 -0.03685245
-0.006609976 0.004650232 0.06696444 -0.0012659808 -0.029676255 0.07158527 0.07139789 -0.0024087646
-0.04542596 0.0320303 0.018679077 -0.048945263 0.077574156 -0.00960725 0.0875055 0.012112816
-0.031817123 -0.0123929605 0.07172423 -0.024650063 0.04531376 0.058701463 -0.05692359 -0.023397664
0.006842954 0.074842304 0.022072418 -0.04385045 -0.06329034 -0.044788726 0.012147887 -0.0050122924
0.042158954 -0.036646422 0.058539275 -0.012965292 0.0067697917 -0.08169489 0.033787508 -0.04462651
-0.046995934 -0.07858732 0.05336528 0.03898203 0.016245537 0.04499814 -0.02167398 -0.025206704

layer1.1.bn2.weight f4 [16]
00000000: a592 7f3f d68b 7d3f 5eff 7b3f 3d2d 803f
00000010: 069f 7e3f fb49 7f3f d9e0 7e3f 6fba 803f
00000020: 93c8 7c3f 6d14 7d3f 3b9e 7f3f 8113 7f3f
00000030: 0457 813f 12a8 803f d779 7f3f 6253 813f
0.99833137 0.990415 0.98436534 1.0013806 0.994614 0.9972226 0.9956184 1.0056895
0.9874355 0.9885929 0.99850816 0.99639136 1.010468 1.0051291 0.9979529 1.0103571

layer1.1.bn2.bias f4 [16]
00000000: 147d fe3b 7118 22bc 0954 85bb 4209 1cbc
00000010: e149 d73b 1dde 773b f99e 0e3c 134f 903b
00000020: 7e48 8ebb 1aa4 a33b efa8 493b b143 203c
00000030: a62e 6a3b ec84 863c db96 063c 2829 be3b
0.0077663753 -0.009893523 -0.0040688557 -0.009523692 0.0065700863 0.0037821599 0.008704894 0.0044039576
-0.004342138 0.0049939277 0.0030770858 0.009781764 0.003573337 0.016420804 0.008214678 0.005803246

layer1.1.bn2.running_mean f4 [16]
00000000: 2b08 3e3e 1a29 f0bd 04ca bf3d 94ab bb3e
00000010: f37e 8fbc 961c 52be 68c3 ef3c 9427 bb3e
00000020: 7785 23bf a893 eabd 28a8 b5be f7c6 17bf
00000030: 24c0 d23e 58d6 bdbd 2946 5fbd 7da3 ddbe
0.18557803 -0.117265895 0.09364703 0.3665434 -0.017516589 -0.20518717 0.029267982 0.36553633
-0.63875526 -0.114539444 -0.35479856 -0.5928797 0.41162217 -0.092693985 -0.05451027 -0.43288794

layer1.1.bn2.running_var f4 [16]
00000000: 8c2d 2c3e 2190 f73d ff48 e23d 6dbe 2d3e
00000010: b0c1 543e 3a73 163e cdd4 353e 0790 2b3e
00000020: 172b 673e 841d 373e 1580 1c3e a618 6f3e
00000030: 77dd 5e3e 0d38 2f3e f199 043e 7437 4a3e
0.1681425 0.12088037 0.11049079 0.16967173 0.20777011 0.14692393 0.17756958 0.16754161
0.22575031 0.17882353 0.15283234 0.23349246 0.2176417 0.17111225 0.12949349 0.19747716

layer2.0.conv1.weight f4 [32, 16, 3, 3]
00000000: cf00 bcbd 9416 83bd 7c27 2d3d 7da3 a4bd
00000010: 9a28 58bd d589 d03b 6d2b 3dbd 253a a9bd
00000020: 4d1b 0e3d a6b1 b43c 4242 1c3d a5c1 613c
00000030: a555 923d d967 24bd 8968 d53b a051 88bd
00000040: 009c 2bbd e733 2e3d e03b a5bd bb63 a5ba
00000050: 1743 97bd ea0b 123c bbfa 353c b024 62bd
00000060: 201b 83bd a362 973c e00a 21bd 67c5 7cbd
00000070: 0bd9 b8bc 09dc 8b3d 10d8 873c b745 8a3d
00000080: 25d8 c8bc f913 e9bc 83a3 7d3d 93e0 74bc
00000090: 544e 2cbd 7279 23bd ab6c 61bc 7f13 8ebd
000000a0: 1cab 7d3d c3c9 6bbd c8fc 90bd 11d7 943d
000000b0: e6a3 933c 578c 733d 5701 82bc dc94 963d
000000c0: 8231 cdbc 1857 43bd 426b 413d f98a f1bc
000000d0: d5ce b43d f4ea 23bd 689c 65bd f672 8bbc
000000e0: c582 8ebd 790d 97bd 1cd8 a5bd c651 dabc
000000f0: 3e15 a9bd 36a1 a13d ef68 9cbc b001 13bd
00000100: d7b9 5cbd f86d 58bd 28ff d03c 8e72 5abd
00000110: a22d e7bc cb98 65bb 06a3 a93c 694c ca3a
00000120: d485 13bd d6a7 083c da41 25bd dd23 35bd
00000130: e62f 003b 4649 46bd 251b 973d 6524 a53c
00000140: 42f7 b83d 05b0 cf3c c731 0d3d 835e f7bc
00000150: 950b 76bc fc01 5c3d b7fd 323d 37e5 37bd
00000160: d4c4 1ebd 1256 a83c 2e29 65bc 1e93 abbc
00000170: 8a76 133d bd30 913c c847 2dbd e0ff 433d
00000180: 20c6 a7bb 647a 02bd 626c 333b f662 97bc
00000190: 6b62 75bd 454c 87bc 18ee a83d b92a 87bd
000001a0: c0d3 74bd 66fc c7bc bb93 7c3d 60db 383d
000001b0: f7e7 173d 64b6 273d 364b 89bd 74cd e6bc
000001c0: 59fc 663d 2d92 863d fdde 39bd 5996 3bbd
000001d0: bf87 873d 71fb d63c efd6 ebbc 7e24 a6bd
000001e0: fc56 183d 3d6f a5bd f740 c6bb 4ec4 893d
000001f0: 306b 533d 9082 d1bc 76f9 56bd e465 b2bd
00000200: 8948 1c3d 0e49 aebc dc7f bbbd f5bb 2fbc
00000210: 0cd0 abbd 10b5 01bd 9a27 32bd 9210 11bd
00000220: ebce 1e3d 7285 05bd b385 b83d afdd dd3c
00000230: e81e 1fbd a1ed 6e3d 65e4 62bc 47e3 243d
00000240: 29e4 63bd c001 ce3a 8826 04bc 87d2 8bbd
00000250: 7a21 88bd aea3 7c3d e151 81bc fe6e ac3d
00000260: 3cb8 5f3d 42f4 cd3c 92d3 9ebd 929e dc3c
00000270: 6044 d73c 0d7b 433c b4a1 ebba 97ba 8abd
00000280: 31c0 11bc d7b6 92bc 48dc 413d fc60 093d
00000290: b274 233d f2b3 ca3c bbc3 90bd 9a1c 64bc
000002a0: 9a11 a8bc 3df0 d53c 7d61 7bbd d349 8e3c
000002b0: db87 fdbc 7c90 963d 19d9 803d c1b4 d5bc
000002c0: 338c 4d3d 777f 95bd 5945 353d e890 7f3d
000002d0: 5338 d0bc 7365 78bd f08c 7dbd 6753 51bd
000002e0: 8702 30bd 2ac1 d3bc 62f5 48bd 2435 da3c
000002f0: fb27 9dbd f3d3 833c ef2d c4bc 5aa2 173d
00000300: 5a24 8a3d 325f bdbd 3776 3abc 07c2 9abd
00000310: a739 6aba d965 3cbd b653 67bd 410a 0f3c
00000320: 1a5e 9f3c 9ac5 14bd 230d 32bd 3b07 9bbd
00000330: 0f7a 853a 1985 60ba e000 883d 0cf1 d8bc
00000340: 9de7 f9bc 5e42 7a3d 7132 aebb 30a0 c1bc
00000350: 6982 a83c 94eb 173c eab9 97bd d142 543d
00000360: ee6e b73c 9673 913d e73e 723d 1023 92bd
00000370: 0318 4abd 359f 083c 802f 8cbd b57b abbd
00000380: e4ed e1bb e731 043d 88e1 b5bc 76be 20bd
00000390: 34a2 a5bd 5f28 58bd 9e39 8f3d abef 863d
000003a0: ced1 023d 1628 053d 969d e9bc ea68 38bd
000003b0: f9c1 4fbd 7f4e 9d3c 6a9f abbd de6c f9bc
000003c0: 9ede 93ba 7b60 eaba df3d debb a6c7 e4bb
000003d0: a79d 86bd 4c6a 59bd 3e76 9f3c 4b6f 90bc
000003e0: ffad a3bd f612 223d 41a9 803d f5b8 2bbd
000003f0: 7a0b 99bd 2ab1 033d 1f66 2abd 5cb7 543c
-0.09179842 -0.06400791 0.042273983 -0.080389954 -0.052773096 0.006364087 -0.046183992 -0.08263043
0.034694005 0.022057366 0.038149126 0.013779079 0.07145242 -0.0401381 0.0065127057 -0.06656194
-0.04189682 0.042529967 -0.08068061 -0.0012618223 -0.07385843 0.008913973 0.011107142 -0.05521077
-0.06401658 0.01847965 -0.03931701 -0.061711695 -0.022564432 0.06829078 0.016582519 0.06751578
-0.024517128 -0.028451907 0.061923515 -0.014946121 -0.042066887 -0.03991074 -0.013758819 -0.06937312
0.06193076 -0.05756546 -0.07079464 0.07267583 0.018022489 0.05946001 -0.01586978 0.073526114
-0.025048021 -0.04769048 0.04722143 -0.029485213 0.088285126 -0.04001899 -0.056057364 -0.017022591
-0.06958536 -0.073756166 -0.0809786 -0.02665032 -0.08256005 0.07892077 -0.019093005 -0.03589028
-0.05388817 -0.05283925 0.025512293 -0.053331904 -0.028220002 -0.0035033699 0.020707618 0.0015434149
-0.0360163 0.008340796 -0.040346004 -0.044223655 0.00195598 -0.048409723 0.07378224 0.020158956
0.09031536 0.025352487 0.0344713 -0.030196434 -0.01501741 0.05371283 0.043698993 -0.04489633
-0.03876193 0.020548854 -0.013986869 -0.020944174 0.03600172 0.017723436 -0.042304784 0.047851443
-0.005120054 -0.031855002 0.0027377834 -0.018479805 -0.05990831 -0.01651586 0.08248538 -0.065999456
-0.059772253 -0.024412345 0.061664324 0.045131087 0.037086453 0.040945426 -0.067037985 -0.02817414
0.056393 0.065708496 -0.045378674 -0.04579768 0.066176884 0.026242943 -0.028789012 -0.08112429
0.03719233 -0.08077858 -0.006050225 0.06726895 0.051615894 -0.025574952 -0.052484 -0.0871084
0.038155112 -0.02127507 -0.091552466 -0.010725965 -0.08389291 -0.031666815 -0.0434948 -0.035416193
0.03877155 -0.032597966 0.09009876 0.027083246 -0.038847834 0.05833209 -0.013848399 0.04025581
-0.055637512 0.0015717074 -0.008065827 -0.06827264 -0.0664701 0.061679535 -0.015786113 0.084196076
0.05461906 0.025140885 -0.077551976 0.026931081 0.02627772 0.011931193 -0.0017977268 -0.067738704
-0.00889592 -0.01790945 0.047329217 0.033539757 0.03990621 0.024744008 -0.070685826 -0.013922835
-0.020516206 0.026115531 -0.06137227 0.017369187 -0.03094857 0.07351777 0.06291408 -0.026087167
0.050182533 -0.072997026 0.04425559 0.062394053 -0.025417482 -0.060643625 -0.061901987 -0.05110493
-0.04297116 -0.025848944 -0.04906214 0.026636668 -0.07673641 0.016092276 -0.023947684 0.037020065
0.06745215 -0.09246673 -0.011380724 -0.07556539 -0.00089349825 -0.045995567 -0.056476317 0.008730472
0.01945405 -0.03632126 -0.04346956 -0.075697385 0.0010183471 -0.0008564755 0.06640792 -0.026482128
-0.03050595 0.06109845 -0.0053160717 -0.023635954 0.020569997 0.009272475 -0.07408507 0.051821534
0.022391763 0.071021244 0.05914202 -0.07135594 -0.049339306 0.008338739 -0.068449974 -0.083732046
-0.006894814 0.032274153 -0.022202268 -0.039244138 -0.080875784 -0.052772876 0.069934115 0.06588682
0.031938367 0.032508932 -0.028517526 -0.04502193 -0.050722096 0.019202469 -0.08380015 -0.03044742
-0.0011281555 -0.0017881537 -0.006782278 -0.0069818078 -0.065730385 -0.05307989 0.019465562 -0.017631194
-0.079921715 0.039568864 0.062822826 -0.041924436 -0.07472892 0.03215138 -0.041601297 0.012983169

layer2.0.bn1.weight f4 [32]
00000000: 2871 7f3f c577 813f 0ee4 7f3f 810a 7d3f
00000010: 01c1 7e3f f8e8 803f 45a3 7e3f c98a 7e3f
00000020: df07 803f 483e 813f 697d 803f 9703 803f
00000030: f344 7e3f 145d 7d3f f2d0 7e3f 2de1 7d3f
00000040: e479 803f 4462 803f 06c2 7d3f a0e2 7d3f
00000050: 2973 813f 9fa9 7e3f 5467 803f 9485 803f
00000060: 235c 813f b01c 7f3f 5b49 803f 2020 803f
00000070: 7f45 803f 0fc0 813f 160f 803f fcb8 7f3f
0.9978204 1.0114676 0.9995736 0.9884415 0.9951325 1.0071096 0.9946788 0.9943052
1.0002402 1.0097132 1.0038272 1.0001096 0.9932396 0.9897015 0.99537575 0.99171716
1.0037198 1.0029988 0.9912418 0.9917393 1.0113269 0.9947757 1.0031533 1.0040765
1.0106243 0.9965315 1.0022386 1.0009804 1.0021209 1.0136737 1.0004604 0.9989164

layer2.0.bn1.bias f4 [32]
00000000: 7596 b3b8 14a4 313c 9cb9 e73b 1209 74bb
00000010: d936 33bb f5a5 af3b 2556 06bc 4749 843b
00000020: 3c2f 013b 5d34 3d3b 4673 d63b c576 743c
00000030: e781 013c 1dec 51bb 9639 e53b 03d5 3ebb
00000040: 14d4 4b3c 59ca 513b 9e5b 3f3b 1699 61bb
00000050: b082 9b3b b098 853b 53e2 653b fd0f 83ba
00000060: 8242 173c 72dc e439 a4d2 8f39 c36b d53a
00000070: 0c15 9d3a 73c5 3c3b 443c 323b 8f76 5e3b
-8.56341e-05 0.010842342 0.007071687 -0.0037236852 -0.0027345924 0.00536036 -0.008199249 0.0040370557
0.0019711992 0.0028870322 0.0065445034 0.014920895 0.007904506 -0.0032031604 0.00699539 -0.0029118664
0.0124407 0.0032011478 0.0029198895 -0.0034423522 0.004745804 0.0040770397 0.0035077527 -0.0009999272
0.009232165 0.00043651793 0.00027432025 0.0016282726 0.0011984422 0.0028804212 0.0027196566 0.0033945178

layer2.0.bn1.running_mean f4 [32]
00000000: a608 99bf bb15 49bf 1cff 293f 08a3 85bf
00000010: 4fd1 e73e 891d 55bf 07e6 833f 11e8 05bf
00000020: 8147 1a3f c113 3cbf 61a4 37bf 641d a23f
00000030: 0bad f4be 0203 59bf 957c debc 186c 3d3f
00000040: a318 933e ddaa b4be dba4 a73e 10c6 07bf
00000050: 2770 edbf ecfb 9c3f d376 0d3f 917b 63bf
00000060: 57eb 89be 30d0 38bc d57d f8be 7c4a fcbd
00000070: 20f5 acbf 30d0 0e3f 8d68 273f 0df7 e93e
-1.1955764 -0.78548783 0.6640489 -1.0440378 0.45276877 -0.8324819 1.0304574 -0.5230723
0.60265356 -0.7346764 -0.717352 1.2665219 -0.4778827 -0.84770215 -0.027159015 0.7399306
0.28729734 -0.35286608 0.32742962 -0.53036594 -1.8549851 1.226438 0.55259436 -0.8886042
-0.26937363 -0.0112801045 -0.48533502 -0.12318894 -1.3512306 0.5578642 0.65393907 0.45696297

layer2.0.bn1.running_var f4 [32]
00000000: 95a9 b53f aad2 de3e e5d2 6f3f ba74 bd3e
00000010: 6ef7 903e 8725 093f 34df 533f 1c03 ae3f
00000020: 328a c23e 2dac 2c3f e329 343f 8f2a 963f
00000030: 9df6 d73e e9e4 143f 2a9e 623f 0175 823f
00000040: 7f9a 6a3f 40cd ee3e a5bd 053f b3c6 a63f
00000050: 6855 6f3f 1cbc 093f b45c ff3e b2b3 893f
00000060: fb0a 183f 67c9 293f a03f 793f c59d b23f
00000070: 3b71 7f3f 1719 273f dee9 ad3e e33a 343f
1.4192377 0.435201 0.93681175 0.37003118 0.28313774 0.5357289 0.82762456 1.3594699
0.3799606 0.6745022 0.70376414 1.1731738 0.42180339 0.5816179 0.8852259 1.0191957
0.9164199 0.46640968 0.522425 1.3029388 0.93489695 0.5380266 0.49875414 1.0757964
0.59391755 0.6632294 0.9736271 1.3954397 0.9978215 0.6527266 0.3396749 0.70402354
